{"format": "layers-model", "generatedBy": "keras v2.8.0", "convertedBy": "TensorFlow.js Converter v3.15.0", "modelTopology": {"keras_version": "2.8.0", "backend": "tensorflow", "model_config": {"class_name": "Functional", "config": {"name": "model_2", "layers": [{"class_name": "InputLayer", "config": {"batch_input_shape": [null, null, null, 3], "dtype": "float32", "sparse": false, "ragged": false, "name": "Image"}, "name": "Image", "inbound_nodes": []}, {"class_name": "TFOpLambda", "config": {"name": "tf.image.resize_2", "trainable": true, "dtype": "float32", "function": "image.resize"}, "name": "tf.image.resize_2", "inbound_nodes": [["Image", 0, 0, {"size": [1024, 1024]}]]}, {"class_name": "TFOpLambda", "config": {"name": "tf.image.extract_patches_2", "trainable": true, "dtype": "float32", "function": "image.extract_patches"}, "name": "tf.image.extract_patches_2", "inbound_nodes": [["tf.image.resize_2", 0, 0, {"sizes": [1, 128, 128, 1], "strides": [1, 128, 128, 1], "rates": [1, 1, 1, 1], "padding": "VALID"}]]}, {"class_name": "TFOpLambda", "config": {"name": "tf.reshape_2", "trainable": true, "dtype": "float32", "function": "reshape"}, "name": "tf.reshape_2", "inbound_nodes": [["tf.image.extract_patches_2", 0, 0, {"shape": [1, -1, 49152]}]]}, {"class_name": "Dense", "config": {"name": "dense_2", "trainable": true, "dtype": "float32", "units": 64, "activation": "linear", "use_bias": true, "kernel_initializer": {"class_name": "GlorotUniform", "config": {"seed": null}}, "bias_initializer": {"class_name": "Zeros", "config": {}}, "kernel_regularizer": null, "bias_regularizer": null, "activity_regularizer": null, "kernel_constraint": null, "bias_constraint": null}, "name": "dense_2", "inbound_nodes": [[["tf.reshape_2", 0, 0, {}]]]}, {"class_name": "TFOpLambda", "config": {"name": "tf.__operators__.add_2", "trainable": true, "dtype": "float32", "function": "__operators__.add"}, "name": "tf.__operators__.add_2", "inbound_nodes": [["dense_2", 0, 0, {"y": [[… "name": null}]]}, {"class_name": "LayerNormalization", "config": {"name": "layer_normalization_22", "trainable": true, "dtype": "float32", "axis": [2], "epsilon": 1e-06, "center": true, "scale": true, "beta_initializer": {"class_name": "Zeros", "config": {}}, "gamma_initializer": {"class_name": "Ones", "config": {}}, "beta_regularizer": null, "gamma_regularizer": null, "beta_constraint": null, "gamma_constraint": null}, "name": "layer_normalization_22", "inbound_nodes": [[["tf.__operators__.add_2", 0, 0, {}]]]}, {"class_name": "MultiHeadAttention", "config": {"name": "multi_head_attention_11", "trainable": true, "dtype": "float32", "num_heads": 64, "key_dim": 64, "value_dim": 64, "dropout": 0.1, "use_bias": true, "output_shape": null, "attention_axes": [1], "kernel_initializer": {"class_name": "GlorotUniform", "config": {"seed": null}}, "bias_initializer": {"class_name": "Zeros", "config": {}}, "kernel_regularizer": null, "bias_regularizer": null, "activity_regularizer": null, "kernel_constraint": null, "bias_constraint": null, "query_shape": [1, 64, 64], "key_shape": [1, 64, 64], "value_shape": [1, 64, 64]}, "name": "multi_head_attention_11", "inbound_nodes": [[["layer_normalization_22", 0, 0, {"value": ["layer_normalization_22", 0, 0]}]]]}, {"class_name": "Add", "config": {"name": "add_22", "trainable": true, "dtype": "float32"}, "name": "add_22", "inbound_nodes": [[["multi_head_attention_11", 0, 0, {}], ["tf.__operators__.add_2", 0, 0, {}]]]}, {"class_name": "LayerNormalization", "config": {"name": "layer_normalization_23", "trainable": true, "dtype": "float32", "axis": [2], "epsilon": 1e-06, "center": true, "scale": true, "beta_initializer": {"class_name": "Zeros", "config": {}}, "gamma_initializer": {"class_name": "Ones", "config": {}}, "beta_regularizer": null, "gamma_regularizer": null, "beta_constraint": null, "gamma_constraint": null}, "name": "layer_normalization_23", "inbound_nodes": [[["add_22", 0, 0, {}]]]}, {"class_name": "Add", "config": {"name": "add_23", "trainable": true, "dtype": "float32"}, "name": "add_23", "inbound_nodes": [[["layer_normalization_23", 0, 0, {}], ["add_22", 0, 0, {}]]]}, {"class_name": "Conv2D", "config": {"name": "conv2d_2", "trainable": true, "dtype": "float32", "filters": 64, "kernel_size": [3, 3], "strides": [1, 1], "padding": "same", "data_format": "channels_last", "dilation_rate": [1, 1], "groups": 1, "activation": "elu", "use_bias": true, "kernel_initializer": {"class_name": "RandomNormal", "config": {"mean": 0.0, "stddev": 0.04, "seed": null}, "shared_object_id": 19}, "bias_initializer": {"class_name": "Zeros", "config": {}}, "kernel_regularizer": null, "bias_regularizer": null, "activity_regularizer": null, "kernel_constraint": null, "bias_constraint": null}, "name": "conv2d_2", "inbound_nodes": [[["Image", 0, 0, {}]]]}, {"class_name": "TFOpLambda", "config": {"name": "tf.math.reduce_mean_2", "trainable": true, "dtype": "float32", "function": "math.reduce_mean"}, "name": "tf.math.reduce_mean_2", "inbound_nodes": [["add_23", 0, 0, {"axis": 2}]]}, {"class_name": "Multiply", "config": {"name": "multiply_2", "trainable": true, "dtype": "float32"}, "name": "multiply_2", "inbound_nodes": [[["conv2d_2", 0, 0, {}], ["tf.math.reduce_mean_2", 0, 0, {}]]]}, {"class_name": "Conv2DTranspose", "config": {"name": "conv2d_transpose_2", "trainable": true, "dtype": "float32", "filters": 3, "kernel_size": [5, 5], "strides": [2, 2], "padding": "same", "data_format": "channels_last", "dilation_rate": [1, 1], "groups": 1, "activation": "tanh", "use_bias": true, "kernel_initializer": {"class_name": "RandomNormal", "config": {"mean": 0.0, "stddev": 0.04, "seed": null}, "shared_object_id": 19}, "bias_initializer": {"class_name": "Zeros", "config": {}}, "kernel_regularizer": null, "bias_regularizer": null, "activity_regularizer": null, "kernel_constraint": null, "bias_constraint": null, "output_padding": null}, "name": "conv2d_transpose_2", "inbound_nodes": [[["multiply_2", 0, 0, {}]]]}], "input_layers": [["Image", 0, 0]], "output_layers": [["conv2d_transpose_2", 0, 0]]}}, "training_config": {"loss": "mean_absolute_error", "metrics": [[{"class_name": "MeanMetricWrapper", "config": {"name": "mean_absolute_error", "dtype": "float32", "fn": "mean_absolute_error"}}]], "weighted_metrics": null, "loss_weights": null, "optimizer_config": {"class_name": "Adam", "config": {"name": "Adam", "learning_rate": 0.0002, "decay": 0.0, "beta_1": 0.5, "beta_2": 0.999, "epsilon": 1e-07, "amsgrad": false}}}}, "weightsManifest": [{"paths": ["group1-shard1of5.bin", "group1-shard2of5.bin", "group1-shard3of5.bin", "group1-shard4of5.bin", "group1-shard5of5.bin"], "weights": [{"name": "conv2d_2/kernel", "shape": [3, 3, 3, 64], "dtype": "float32"}, {"name": "conv2d_2/bias", "shape": [64], "dtype": "float32"}, {"name": "conv2d_transpose_2/kernel", "shape": [5, 5, 3, 64], "dtype": "float32"}, {"name": "conv2d_transpose_2/bias", "shape": [3], "dtype": "float32"}, {"name": "dense_2/kernel", "shape": [49152, 64], "dtype": "float32"}, {"name": "dense_2/bias", "shape": [64], "dtype": "float32"}, {"name": "layer_normalization_22/gamma", "shape": [64], "dtype": "float32"}, {"name": "layer_normalization_22/beta", "shape": [64], "dtype": "float32"}, {"name": "layer_normalization_23/gamma", "shape": [64], "dtype": "float32"}, {"name": "layer_normalization_23/beta", "shape": [64], "dtype": "float32"}, {"name": "multi_head_attention_11/query/kernel", "shape": [64, 64, 64], "dtype": "float32"}, {"name": "multi_head_attention_11/query/bias", "shape": [64, 64], "dtype": "float32"}, {"name": "multi_head_attention_11/key/kernel", "shape": [64, 64, 64], "dtype": "float32"}, {"name": "multi_head_attention_11/key/bias", "shape": [64, 64], "dtype": "float32"}, {"name": "multi_head_attention_11/value/kernel", "shape": [64, 64, 64], "dtype": "float32"}, {"name": "multi_head_attention_11/value/bias", "shape": [64, 64], "dtype": "float32"}, {"name": "multi_head_attention_11/attention_output/kernel", "shape": [64, 64, 64], "dtype": "float32"}, {"name": "multi_head_attention_11/attention_output/bias", "shape": [64], "dtype": "float32"}]}]}